lightning_logs/version_0/checkpoints/epoch=9-step=130.ckpt (torch, 642173 bytes, 30 tensors)

lstm.weight_ih_l0 f4 [256, 8]
0.08593525 -0.13408525 0.033130784 -0.04553278 0.0031182542 0.100978 0.07937524 0.030571429
-0.03834783 0.11997884 0.0055598062 0.10435186 -0.1291893 -0.13689321 -0.06398847 -0.108531706
0.12293671 -0.013236005 0.04659825 -0.053826965 -0.05246282 0.13826068 0.020421874 0.053501666
0.13529412 0.029729515 0.06716475 -0.1577284 -0.0040292256 0.07179395 -0.112738624 0.13676895
0.0141470805 0.11106374 -0.08410512 0.050888874 -0.08549387 -0.03438294 0.046301376 -0.08373758
0.08928131 0.16962545 -0.12573975 0.070696816 0.036148354 0.040101707 -0.085565805 -0.016894717
0.15064074 -0.032441445 -0.08356183 0.15251963 -0.04960937 0.002910411 0.039752044 0.10641789
-0.04672287 0.13571416 0.08832997 0.14590658 -0.064612746 0.037967846 0.17944127 -0.14714856
0.058960974 -0.033914026 0.0151434 -0.058967523 -0.052497603 0.024676604 -0.020712337 -0.012375593
-0.13528407 0.10679991 -0.076972105 0.1411703 -0.039144196 -0.09964086 -0.10213515 0.030519271
0.033297345 0.03857526 0.059819277 0.006904923 0.03937544 0.054937337 0.18635567 0.011012756
-0.11004386 -0.10952784 0.039379794 -0.13765061 0.010225512 0.016495835 0.016827118 0.09901477
-0.056916445 0.09371979 -0.018989254 -0.059735984 -0.12298314 -0.019438794 0.104525395 -0.07579372
-0.09656521 0.07001508 -0.07940139 -0.025367247 -0.15057985 0.07593556 0.05477834 -0.057915118
-0.017092003 0.006536894 -0.070075475 -0.025026616 -0.037205506 -0.025895588 -0.0724844 -0.09052679
-0.006048558 -0.130274 0.08195818 -0.03141699 0.051641878 0.03256575 0.034225184 0.034836333
-0.0387633 -0.027673524 0.087632045 -0.06816376 0.02340442 0.01338974 0.02585532 -0.05424487
0.010294721 0.06866001 -0.076161325 -0.044929925 -0.14140241 -0.014388527 -0.06813641 0.12561224
0.14721121 -0.090275414 -0.03591278 -0.062478002 -0.013195674 -0.13161607 0.01262076 0.07521627
-0.09996219 -0.076868474 -0.037236743 0.10066147 -0.101172574 0.0805165 -0.11200431 -0.104169615
0.061021157 -0.09113665 0.0051046587 0.026740681 -0.002552603 0.013593379 0.05515595 0.01568573
0.01117098 -0.060579248 -0.07049718 -0.104211286 -0.010407338 -0.062368397 0.09296298 -0.0357153
-0.06443996 0.10587659 0.063772954 0.02550951 0.09377881 -0.12061956 -0.038806032 0.011527408
0.07836927 -0.11632435 0.057807885 0.010050866 5.9047914e-05 -0.16001327 -0.12638739 -0.13890441
0.077920966 0.0076833647 -0.10640287 0.0834856 -0.13282126 -0.17281686 0.013061351 0.029370472
-0.08798201 -0.059496902 0.07011392 0.14539325 0.076300174 -0.011435019 -0.063745335 0.020598741
-0.11834581 -0.011386517 -0.017428622 0.13116105 -0.15284504 -0.01980569 -0.031046096 0.0048906268
0.013374846 0.18527178 -0.099656135 0.11763623 -0.08881397 0.17533633 -0.05251782 -0.0808543
0.059762884 -0.0072616194 -0.00697544 0.042368844 0.018536514 -0.087650485 -0.077066265 0.06899189
0.10011768 -0.051279105 0.16962832 0.0424775 0.09002622 0.07831799 -0.08154888 0.028547397
0.17421786 0.13949953 -0.09686687 0.16177784 -0.011011541 -0.1294717 0.17984799 0.09082895
-0.12737556 -0.09534146 -0.05287951 -0.03188659 -0.014115984 -0.16618752 -0.073542885 0.081994765
00000000: d2fe af3d a54d 09be 25b4 073d 9580 3abd
00000010: a05b 4c3b 8ecd ce3d 7c8f a23d ef70 fa3c
00000020: 9d12 1dbd 77b7 f53d 092f b63b 6eb6 d53d
00000030: 334a 04be bc2d 0cbe 630c 83bd df45 debd
00000040: 3ec6 fb3d d4db 58bc cedd 3e3d aa79 5cbd
00000050: 41e3 56bd 3594 0d3e c64b a73c 9024 5b3d
00000060: 8b8a 0a3e 508b f33c ac8d 893d 8e83 21be
00000070: 9807 84bb b508 933d 82e3 e6bd 290d 0c3e
00000080: 28c9 673c 6375 e33d 4e3f acbd da70 503d
00000090: 6917 afbd 20d5 0cbd 83a6 3d3d 9c7e abbd
000000a0: 1fd9 b63d 4bb2 2d3e ecc1 00be 7ec9 903d
000000b0: 4c10 143d b041 243d 203d afbd ca66 8abc
000000c0: 9141 1a3e 52e1 04bd 7722 abbd 1b2e 1c3e
000000d0: 3233 4bbd 98bc 3e3b 0ad3 223d 9ff1 d93d
000000e0: 7b60 3fbd a7f8 0a3e 58e6 b43d 8968 153e
000000f0: b053 84bd 2c84 1b3d 74bf 373e 1dae 16be
00000100: 1081 713d 6fe9 0abd 061c 783c ee87 71bd
00000110: ba07 57bd 9726 ca3c ebac a9bc 00c3 4abc
00000120: e887 0abe e9b9 da3d 8da3 9dbd f28e 103e
00000130: aa55 20bd 8210 ccbd 3c2c d1bd 8d03 fa3c
00000140: cc62 083d 1801 1e3d 0f05 753d b142 e23b
00000150: 2448 213d f905 613d 05d4 3e3e d96e 343c
00000160: ad5e e1bd 2250 e0bd b54c 213d 48f4 0cbe
00000170: e888 273c 4622 873c 06d9 893c 41c8 ca3d
00000180: 3821 69bd 29f0 bf3d 5a8f 9bbc b8ad 74bd
00000190: 96de fbbd 1b3e 9fbc 6911 d63d bd39 9bbd
000001a0: fbc3 c5bd 1164 8f3d 329d a2bd f9ce cfbc
000001b0: 9b31 1abe 1a84 9b3d 415f 603d 6738 6dbd
000001c0: 8704 8cbc 7133 d63b bb83 8fbd 9e04 cdbc
000001d0: cd64 18bd fc22 d4bc b372 94bd 1c66 b9bd
000001e0: fb32 c6bb 8c66 05be b1d9 a73d 1aaf 00bd
000001f0: 6f86 533d aa63 053d b52f 0c3d 8bb0 0e3d
00000200: 44c6 1ebd 96b3 e2bc 6e78 b33d 7199 8bbd
00000210: a0ba bf3c a460 5b3c 89ce d33c de2f 5ebd
00000220: 31ab 283c 9f9d 8c3d 78fa 9bbd 7108 38bd
00000230: cbcb 10be dbbd 6bbc 1a8b 8bbd 7fa0 003e
00000240: 89be 163e 51e2 b8bd 4719 13bd efe8 7fbd
00000250: ab32 58bc 5dc6 06be 4ec7 4e3c fd0a 9a3d
00000260: fab8 ccbd 386d 9dbd 8e85 18bd 9a27 ce3d
00000270: 9133 cfbd d6e5 a43d 8462 e5bd e156 d5bd
00000280: 52f1 793d daa5 babd fb44 a73b 460f db3c
00000290: 9249 27bb c4b6 5e3c 35eb 613d 5c7f 803c
000002a0: 7c06 373c f221 78bd d360 90bd ba6c d5bd
000002b0: 8a83 2abc 0176 7fbd 6063 be3d 354a 12bd
000002c0: 19f9 83bd d3d5 d83d 659b 823d 52f9 d03c
000002d0: 1b0f c03d 6307 f7bd 13f3 1ebd 74dd 3c3c
000002e0: 1180 a03d 763b eebd f6c7 6c3d 63ac 243c
000002f0: 37aa 7738 85da 23be b26b 01be f53c 0ebe
00000300: 0795 9f3d bcc4 fb3b bfe9 d9bd 80fa aa3d
00000310: 4c02 08be e7f6 30be 47ff 553c 589a f03c
00000320: e92f b4bd 06b3 73bd e397 8f3d f8e1 143e
00000330: 4443 9c3d f259 3bbc ea8c 82bd b1be a83c
00000340: 4a5f f2bd 848e 3abc 78c6 8ebc 154f 063e
00000350: 6983 1cbe 8b3f a2bc 6254 febc 8d41 a03b
00000360: 2c22 5b3c e3b7 3d3e 8418 ccbd 44eb f03d
00000370: 19e4 b5bd 5e8b 333e ed1c 57bd f096 a5bd
00000380: edc9 743d e1f2 edbb 3b92 e4bb f48a 2d3d
00000390: e3d9 973c 1982 b3bd ebd4 9dbd 9f4b 8d3d
000003a0: 800a cd3d 0a0a 52bd 0cb3 2d3e e3fc 2d3d
000003b0: ab5f b83d 2f65 a03d 1903 a7bd 3bdc e93c
000003c0: 2b66 323e f7d8 0e3e 2362 c6bd 17a9 253e
000003d0: c069 34bc 3b94 04be 122a 383e 8704 ba3d
000003e0: bd6e 02be 6242 c3bd 2f98 58bd 839b 02bd
000003f0: ba46 67bc 102d 2abe a79d 96bd dfec a73d

lstm.weight_hh_l0 f4 [256, 64]
-0.11093922 -0.09848618 -0.037330493 0.07974975 0.0443023 -0.056251176 0.14913517 -0.07131095
0.10180278 -0.0014858511 -0.08291406 -0.103620045 -0.04359338 -0.07241083 0.13540399 0.09806476
-0.008828464 -0.11774591 -0.022166317 -0.05264568 -0.010916558 -0.023591718 -0.07616989 0.005313408
-0.08865008 0.01834826 0.18259697 -0.1332739 -0.06002804 -0.12119645 -0.004551108 -0.081843264
-0.010407825 0.08760083 0.04323559 -0.080530465 0.009171354 -0.055752553 0.01754086 0.12199752
0.09974558 0.05591439 -0.0829545 0.03876037 -0.038352616 0.027219737 -0.02897356 0.075476274
-0.13979039 -0.12402981 -0.022284029 -0.044878054 -0.04817016 -0.0481554 0.16706343 0.0563673
0.0037197184 0.012119743 -0.0057516396 0.028335802 0.06490167 -0.07260752 -0.06998625 0.004197598
-0.0994242 -0.08577065 -0.0077865766 -0.06849856 0.06453834 -0.039029554 0.0028489046 0.005190142
-0.014520662 -0.086573035 -0.15024629 0.009797652 -0.019244902 -0.12693709 0.089937225 0.009364069
-0.09478799 -0.12474371 -0.009769368 0.122917324 -0.00026729237 0.054975152 -0.065199025 0.035915352
-0.058827873 0.04247157 0.041681733 -0.10638424 -0.08027013 0.037727363 0.115637936 -0.04665466
0.086109504 0.14768334 -0.015187713 -0.09217933 -0.14531837 0.0689581 -0.042115524 0.017029725
0.10742082 0.02616243 -0.07360665 -0.022465361 -0.021090318 -0.11110892 -0.046342324 0.019859686
0.07144363 -0.09626478 0.014083446 -0.122745365 0.15667567 -0.14915626 0.121452 0.0062584486
-0.03170473 -0.004877188 -0.08800395 0.04144266 -0.006348938 -0.10043779 -0.087446526 0.098509386
-0.018762112 0.052875683 -0.093438745 0.061824404 -0.07892443 -0.04045066 -0.13376558 -0.068777554
0.15459763 -0.021601345 -0.0528654 0.029233543 0.003883706 -0.096237965 0.10414375 -0.067730956
0.082784384 -0.010024091 0.067012474 0.11815712 0.12449069 -0.043893725 0.10151447 -0.021574909
0.13267653 -0.055139992 -0.12160086 -0.08773104 0.027637426 -0.01500481 -0.044077404 -0.07015917
0.075748645 -0.015770474 -0.06050993 0.1020099 -0.13266112 -0.030173691 -0.1466335 -0.01584934
0.036258195 0.12555797 0.0021343993 0.07306934 -0.017978223 -0.14004399 -0.15142727 -0.123401344
0.09929775 -0.019619223 0.083744764 0.0198232 0.1344879 -0.024485879 0.0019418065 -0.0457297
0.13757354 -0.044134025 -0.047194615 0.096737005 0.02072583 -0.047510773 -0.1456763 0.0850232
0.019869821 -0.05113534 -0.061616715 -0.037447505 0.037919722 0.16612938 0.23438837 -0.022091055
-0.090670526 0.025491027 0.0051689795 -0.010874784 0.1405972 -0.19489065 0.07630856 0.0464562
0.027017437 -0.046208795 0.058364846 0.030450525 -0.080742575 -0.020863565 -0.0867162 0.031190814
-0.07457562 0.14296253 -0.04624812 -0.010301114 0.04887004 0.11306478 0.022762408 0.20239276
0.10260514 0.18085586 -0.09873983 -0.07344673 0.0870184 -0.028145066 0.022193838 0.13532224
-0.06623598 0.049603235 0.0663632 0.043942012 -0.08589505 0.0373529 -0.047881946 -0.12966749
0.028401295 0.07850204 0.056137312 -0.08293244 -0.02488139 -0.08273911 0.056447186 0.14155374
-0.017893331 -0.147 0.104093775 0.077599734 0.1806327 0.03287774 0.026695125 0.05615379
00000000: 1a34 e3bd 1fb3 c9bd dce7 18bd d653 a33d
00000010: 5476 353d a267 66bd e4b6 183e 7a0b 92bd
00000020: fa7d d03d e4c0 c2ba d9ce a9bd bf36 d4bd
00000030: f98e 32bd 214c 94bd 58a7 0a3e 2dd6 c83d
00000040: 43a5 10bc c524 f1bd 2396 b5bc ffa2 57bd
00000050: 5ddb 32bc 6b43 c1bc f6fe 9bbd 191c ae3b
00000060: 2c8e b5bd 174f 963c b3fa 3a3e f478 08be
00000070: f6df 75bd d835 f8bd 7621 95bb 719d a7bd
00000080: 9585 2abc 1068 b33d cd17 313d 28ed a4bd
00000090: 7243 163c ca5c 64bd dab1 8f3c d6d9 f93d
000000a0: 6947 cc3d 7d06 653d 0de4 a9bd 32c3 1e3d
000000b0: a217 1dbd edfb de3c f659 edbc 4e93 9a3d
000000c0: 3625 0fbe 5703 febd ff8c b6bc 0dd2 37bd
000000d0: 134e 45bd 993e 45bd ad12 2b3e 66e1 663d
000000e0: 85c6 733b e391 463c 4078 bcbb 7c20 e83c
000000f0: 2beb 843d 40b3 94bd f354 8fbd 018c 893b
00000100: ea9e cbbd 86a8 afbd 8a26 ffbb f948 8cbd
00000110: ad2c 843d 74dd 1fbd b0b4 3a3b 1112 aa3b
00000120: 12e8 6dbc 344d b1bd 2ada 19be 5586 203c
00000130: 7ca7 9dbc ccfb 01be 0231 b83d c16b 193c
00000140: 3520 c2bd a179 ffbd b30f 20bc 14bc fb3d
00000150: 6023 8cb9 a02d 613d 1187 85bd fa1b 133d
00000160: 7ff5 70bd abf6 2d3d 77ba 2a3d fbdf d9bd
00000170: aa64 a4bd 0288 1a3d 95d3 ec3d f518 3fbd
00000180: 2e5a b03d 4d3a 173e e3d5 78bc 84c8 bcbd
00000190: 57ce 14be e839 8d3d 5481 2cbd ec81 8b3c
000001a0: 72ff db3d 9852 d63c 15bf 96bd 4709 b8bc
000001b0: 9ac5 acbc 138d e3bd 73d1 3dbd c8b0 a23c
000001c0: 0a51 923d 7826 c5bd 41be 663c ec61 fbbd
000001d0: 966f 203e 6bbc 18be d4bb f83d ac13 cd3b
000001e0: d2dc 01bd d1d0 9fbb 6a3b b4bd c7bf 293d
000001f0: c10a d0bb 54b2 cdbd 2a17 b3bd 4abf c93d
00000200: 00b3 99bc 2c94 583d d05c bfbd 963b 7d3d
00000210: 22a3 a1bd 97af 25bd d8f9 08be 3fdb 8cbd
00000220: d74e 1e3e 4ef5 b0bc 6489 58bd 2f7b ef3c
00000230: c685 7e3b 6918 c5bd 5249 d53d 87b6 8abd
00000240: dc8a a93d 163c 24bc d63d 893d 5cfc f13d
00000250: faf4 fe3d e8c9 33bd d2e6 cf3d ddbd b0bc
00000260: 5bdc 073e 79da 61bd df09 f9bd 55ac b3bd
00000270: e267 e23c bcd6 75bc 828a 34bd 9caf 8fbd
00000280: 1b22 9b3d 1531 81bc 43d9 77bd 91ea d03d
00000290: 51d8 07be d12e f7bc 1827 16be 7ad6 81bc
000002a0: 7983 143d 4592 003e 47e1 0b3b 61a5 953d
000002b0: 1147 93bc b167 0fbe c00f 1bbe d8b9 fcbd
000002c0: 9e5c cb3d 7eb8 a0bc 6082 ab3d 4364 a23c
000002d0: 32b7 093e 9c96 c8bc 3784 fe3a 114f 3bbd
000002e0: 14e0 0c3e e1c5 34bd 244f 41bd 0d1e c63d
000002f0: 37c9 a93c a89a 42bd 2b2c 15be a520 ae3d
00000300: 09c6 a23c 4a73 51bd cf61 7cbd 8e62 19bd
00000310: b651 1b3d d21d 2a3e 8103 703e 4df8 b4bc
00000320: 78b1 b9bd 8fd2 d03c 8b60 a93b 262c 32bc
00000330: b6f8 0f3e 6a91 47be aa47 9c3d db48 3e3d
00000340: ac53 dd3c 6f45 3dbd fa0f 6f3d 6173 f93c
00000350: 5d5c a5bd 11ea aabc 4398 b1bd e183 ff3c
00000360: 1abb 98bd c564 123e ab6e 3dbd 01c6 28bc
00000370: f32b 483d 828e e73d 3b78 ba3c 0c40 4f3e
00000380: a522 d23d 4732 393e 1c38 cabd 3d6b 96bd
00000390: b436 b23d 7b90 e6bc dacf b53c ea91 0a3e
000003a0: bba6 87bd c32c 4b3d 6ee9 873d 8afc 333d
000003b0: bee9 afbd 5bff 183d dc1f 44bd 8ec7 04be
000003c0: d5a9 e83c adc5 a03d 3df0 653d 7cd8 a9bd
000003d0: 0fd4 cbbc 1f73 a9bd 2a35 673d 77f3 103e
000003e0: 0995 92bc 2b87 16be 1e2f d53d 9cec 9e3d
000003f0: c7f7 383e cfaa 063d bcaf da3c 8401 663d

lstm.bias_ih_l0 f4 [256]
0.1749434 0.0245029 -0.051142916 -0.036531344 -0.011685613 0.012616505 -0.08345676 -0.0069949385
-0.042598765 0.06996844 0.08354651 0.17788655 -0.08066568 -0.043324966 -0.03196434 -0.02408297
0.0075452365 -0.066109814 0.14038946 0.0692682 0.04897042 0.02746332 0.12477922 0.11287844
0.19497822 0.018853078 0.118863575 -0.046428226 -0.027587205 0.16124456 -0.047846973 -0.023136798
0.13397232 -0.040901735 0.057275247 0.13666315 -0.016512873 0.1544163 0.064795665 -0.027339982
0.1638723 0.046008766 0.021636015 0.11695742 -0.014161153 0.12312064 -0.023874005 0.06507272
0.044745136 0.14838839 -0.023014119 -0.0948591 0.17060453 0.11306472 -0.03574384 -0.111648
-0.081843436 -0.03240434 -0.015548138 0.11635442 0.02453646 0.010879805 0.14047411 0.03327716
0.034665693 -0.09259024 0.03519194 -0.045693155 0.11159622 -0.06884199 -0.014575732 -0.042762056
-0.006292677 0.03277601 0.09814389 0.07454202 -0.013310843 -0.065551825 0.10863876 -0.14201172
-0.00374902 0.08462234 0.026790712 -0.09861784 -0.064752996 0.15871663 -0.053639688 -0.12048478
-0.11618843 -0.0061630527 -0.08895095 -0.05472428 0.09723533 -0.065099575 -0.008822678 0.030565303
0.026882978 0.075286105 -0.11275573 0.00038051346 0.111285545 -0.0073253983 0.09460344 -0.026582008
0.04974017 0.09484714 0.036042184 0.04783815 -0.07526496 0.099105895 -0.04903469 -0.037918337
-0.07074227 -0.06399251 0.07250947 -0.083652325 0.08855729 -0.021392697 -0.076960854 -0.056887075
0.13054596 -0.064983 0.060606502 0.082848035 -0.078804255 -0.11770758 -0.053887498 -0.115500756
0.031143334 -0.023231044 0.007844262 0.052415855 -0.085822925 0.09771278 0.058914036 -0.045146264
0.06741978 -0.072146036 0.05631037 -0.085201554 0.11245662 -0.107025295 0.07055675 0.0037447382
-0.033846222 0.010535625 0.056078274 -0.064817406 -0.08998826 0.10192999 0.12973341 -0.0068175592
-0.08789981 0.10378575 -0.053633794 -0.0775931 -0.023536738 0.047336295 0.070591375 0.07978024
0.028081728 0.00925278 -0.01602641 0.09304217 -0.09127849 -0.004562591 -0.11814271 -0.020614851
0.018204523 0.054058164 -0.12425742 -0.026383929 -0.002197647 0.012867057 0.024678607 0.07923798
-0.0696875 0.08919542 0.07827014 -0.11746266 -0.0073308023 -0.024806073 0.11982082 0.11324482
0.058715772 -0.05341225 0.046523232 0.078759655 0.121070884 0.12908281 -0.04642279 0.029454136
0.057824187 0.13752198 -0.08052731 0.1921785 -0.043301895 -0.037694324 -0.012290318 0.107692875
0.08901786 -0.062479645 0.08110808 0.07608996 0.15088177 -0.057323296 -0.0700954 0.024739554
0.11475221 -0.047843296 -0.06749128 0.05143004 0.062875405 0.08020897 -0.03040096 0.020220052
0.11844612 0.10758615 0.043078795 0.1471528 0.08263483 0.11686102 0.13989975 0.10741161
-0.004239036 0.057044595 0.0802204 0.03751563 -0.04153667 0.008710324 -0.008514774 0.12706245
0.15932782 0.050871886 -0.08968727 0.07393168 0.08913222 0.10664232 -0.049683448 -0.037433
-0.08519996 0.12281165 0.072658084 0.014415503 0.014858718 0.13079391 -0.011161738 -0.1104888
-0.056468837 0.14533496 0.11642071 0.0077496683 0.12863299 0.112163104 -0.08176539 0.01672464
00000000: 5d24 333e 4eba c83c 3c7b 51bd e4a1 15bd
00000010: 0375 3fbc 75b5 4e3c 61eb aabd cc35 e5bb
00000020: 0b7c 2ebd 9d4b 8f3d 6f1a ab3d e427 363e
00000030: 0c34 a5bd 8575 31bd 0aed 02bd a649 c5bc
00000040: 083e f73b 9564 87bd 41c2 0f3e 7cdc 8d3d
00000050: 3595 483d c2fa e03c 3f8c ff3d d02c e73d
00000060: 5fa8 473e c571 9a3c bf6e f33d 862b 3ebd
00000070: 90fe e1bc 4b1d 253e 30fb 43bd 6289 bdbc
00000080: 0a30 093e 9488 27bd 7399 6a3d 6df1 0b3e
00000090: 0146 87bc 4e1f 1e3e 97b3 843d 19f8 dfbc
000000a0: 24ce 273e b073 3c3d 033e b13c 5f87 ef3d
000000b0: 2e04 68bc ad26 fc3d 6b93 c3bc d944 853d
000000c0: ad46 373d 20f3 173e 1b88 bcbc 7d45 c2bd
000000d0: f4b2 2e3e 7a8e e73d 2268 12bd b5a7 e4bd
000000e0: 889d a7bd 6aba 04bd 9ebd 7ebc 3a4b ee3d
000000f0: b000 c93c 3641 323c 72d8 0f3e a24d 083d
00000100: 9dfd 0d3d f49f bdbd 6c25 103d bf28 3bbd
00000110: 8f8c e43d 07fd 8cbd 0dcf 6ebc 4427 2fbd
00000120: cd32 cebb 2340 063d aaff c83d 7da9 983d
00000130: b915 5abc 0940 86bd 007e de3d 856b 11be
00000140: 1eb2 75bb 7a4e ad3d 3278 db3c 26f8 c9bd
00000150: 389d 84bd 9d86 223e 4ab5 5bbd b9c0 f6bd
00000160: 33f4 edbd 6ff3 c9bb ea2b b6bd 9126 60bd
00000170: 5123 c73d ed52 85bd fe8c 10bc 1664 fa3c
00000180: b139 dc3c 9a2f 9a3d 7aec e6bd a77f c739
00000190: ade9 e33d e509 f0bb 73bf c13d 83c2 d9bc
000001a0: 59bc 4b3d 383f c23d f8a0 133d f0f1 433d
000001b0: 8424 9abd 08f8 ca3d 99d8 48bd 4250 1bbd
000001c0: 53e1 90bd 810e 83bd d87f 943d e951 abbd
000001d0: 865d b53d bd3f afbc a79d 9dbd 6c02 69bd
000001e0: d7ad 053e cf15 85bd 863e 783d 3bac a93d
000001f0: 2064 a1bd ac10 f1bd 23b9 5cbd a98b ecbd
00000200: 4e20 ff3c 084f bebc 3885 003c 02b2 563d
00000210: eec3 afbd a31d c83d d84f 713d 4aeb 38bd
00000220: 6213 8a3d 4dc1 93bd b4a5 663d 277e aebd
00000230: a84f e63d 1430 dbbd 0f80 903d 486a 753b
00000240: 56a2 0abd 9d9d 2c3c 55b2 653d fdbe 84bd
00000250: c44b b8bd acc0 d03d d6d8 043e d565 dfbb
00000260: d104 b4bd a08d d43d 1caf 5bbd 22e9 9ebd
00000270: 1ed0 c0bc b4e3 413d 3692 903d d363 a33d
00000280: a70b e63c f998 173c d149 83bc e58c be3d
00000290: 38f0 babd ca81 95bb cef4 f1bd 7ae0 a8bc
000002a0: a721 953c 186c 5d3d ad7a febd 1c23 d8bc
000002b0: 6606 10bb 59d0 523c ca2a ca3c 8647 a23d
000002c0: 52b8 8ebd 17ac b63d 184c a03d 4390 f0bd
000002d0: 3a37 f0bb 1b36 cbbc 9e64 f53d e6ec e73d
000002e0: f37f 703d cec6 5abd 258f 3e3d be4c a13d
000002f0: 03f4 f73d 492e 043e d325 3ebd cd49 f13c
00000300: 0ed9 6c3d 90d2 0c3e 81eb a4bd 71ca 443e
00000310: 545d 31bd 5d65 1abd 545d 49bc 158e dc3d
00000320: ff4e b63d a8ea 7fbd fe1b a63d 0ed5 9b3d
00000330: c080 1a3e d5cb 6abd 2d8e 8fbd 9baa ca3c
00000340: 3503 eb3d 55f7 43bd de38 8abd 4ea8 523d
00000350: d2c4 803d 9a44 a43d 6f0b f9bc 86a4 a53c
00000360: e193 f23d 2156 dc3d 6473 303d 39af 163e
00000370: 733c a93d d554 ef3d e141 0f3e 9efa db3d
00000380: 9ce7 8abb 98a7 693d 984a a43d fda9 193d
00000390: 5b22 2abd bfb5 0e3c 8d81 0bbc a91c 023e
000003a0: d526 233e 0a5f 503d f6ad b7bd 7e69 973d
000003b0: f48a b63d 4a67 da3d df80 4bbd 5853 19bd
000003c0: 517d aebd ad84 fb3d c3cd 943d 002f 6c3c
000003d0: fb71 733c d7ee 053e b9df 36bc f447 e2bd
000003e0: de4b 67bd b0d2 143e fb6d ee3d eef0 fd3b
000003f0: 5eb8 033e c5b5 e53d 9d74 a7bd 1d02 893c

lstm.bias_hh_l0 f4 [256]
0.08292206 0.17210111 0.070293464 0.19100693 0.038218603 0.11459863 -0.06839172 -0.046100948
0.083852276 0.04985912 0.054264322 0.12977344 -0.020324526 -0.06508383 0.12477641 -0.0018605072
0.0030580137 0.13579613 -0.02975804 -0.006058378 0.09980688 -0.04031626 -0.0025930586 0.023094522
0.10049804 -0.09730682 0.103506476 0.1308952 0.10053349 0.0010694643 0.043718655 0.09711346
-0.05151578 -0.032183893 -0.009260181 0.02542657 0.024715016 -0.07445216 0.016146518 0.062404342
0.06326986 0.0335878 0.109315515 0.07929107 0.0809333 -0.051561058 0.13612257 0.044147886
0.075192876 -0.044829506 0.010808535 -0.08737866 0.05642748 -0.03447075 0.111625895 0.13167293
0.11448763 -0.07941246 0.11427631 0.12086871 0.018042197 0.11207398 -0.04746503 0.115826756
0.15099576 -0.1034376 0.16784409 -0.04502382 -0.0575681 0.12237509 -0.10623477 0.0648173
-0.03551862 0.08878951 -0.03763696 -9.36874e-06 0.12721922 0.12002841 -0.005851365 -0.07965643
0.1325902 0.01360243 0.055643637 0.06404372 0.11914268 0.13674532 -0.07424432 -0.039190624
-0.003971499 0.058519434 0.0067588603 -0.05439848 -0.035847712 -0.018440783 -0.08215123 -0.0044898544
-0.012120829 -0.059102092 -0.085206464 -0.133723 0.006226507 0.006181309 0.10627228 0.12819797
0.10412785 0.14752808 -0.0041779103 -0.06626168 0.035580564 -0.017649116 -0.088796526 0.112250246
0.10233219 -0.09374938 -0.04934251 -0.116791174 0.02735468 -0.034232344 0.075284414 0.05316135
-0.097041294 0.03608735 -0.07273958 0.10184688 0.10265081 0.09227967 -0.08172865 -0.03983183
-0.04968642 -0.10302987 -0.062878445 -0.0716319 -0.09668179 -0.014914164 0.092244476 -0.044758044
-0.05473598 -0.014762237 -0.09893559 0.09041522 -0.09135002 0.0736403 0.005428242 0.011289419
0.049938787 -0.061292697 0.09492821 0.12517266 0.09343499 0.0027916597 -0.01457487 -0.07762357
0.050646175 0.0024425196 0.10170987 -0.07105011 -0.08360485 -0.04556261 -0.09821157 -0.046577077
0.05911653 0.11422056 0.09270742 -0.08537584 -0.016068393 0.09272345 -0.09074153 0.07635799
0.07147853 -0.07580557 -0.07014266 0.0887694 0.093697265 -0.055967323 0.02070411 -0.088653564
0.03469752 -0.109066434 0.08131836 0.031520266 0.0048688557 -0.047251962 0.05620444 0.03111853
0.0942307 -0.062169503 0.085951716 0.015880257 0.06643442 -0.08152874 -0.038213506 0.103470825
0.18040276 0.14413801 -0.027081056 0.08347727 0.11071108 0.08876021 -0.0386801 -0.07576757
-0.009188953 0.11292996 0.01199285 0.184128 0.055163972 -0.031495668 0.12632337 -0.06374074
0.058358658 -0.06610235 0.08411424 0.12297575 0.136833 0.17049499 0.14289851 0.1580799
0.13272473 0.0024872057 0.08458893 0.012109021 -0.003025368 0.14190659 -0.032501593 0.007461105
0.043878153 0.04571654 0.109023154 0.03268863 0.004512407 0.026004381 -0.015164564 -0.026866207
0.09782242 -0.038690023 0.10233782 -0.009359135 0.037171874 0.057394736 0.06609546 0.012644283
0.06632276 0.04936736 0.07718059 0.06821832 0.03891064 0.1366384 0.047783613 0.0019080276
0.14346477 -0.0807729 0.006734033 0.0042957705 0.060055908 0.030114917 0.092090115 -0.058106866
00000000: 0ad3 a93d 463b 303e 05f6 8f3d 5297 433e
00000010: 1c8b 1c3d b0b2 ea3d f510 8cbd 59d4 3cbd
00000020: beba ab3d 1439 4c3d 4444 5e3d 54e3 043e
00000030: 9f7f a6bc ac4a 85bd c68a ff3d 43dc f3ba
00000040: f568 483b 240e 0b3e 22c7 f3bc 5c85 c6bb
00000050: 8d67 cc3d aa22 25bd 4ef0 29bb b930 bd3c
00000060: ebd1 cd3d cc48 c7bd 34fb d33d 6409 063e
00000070: 81e4 cd3d 442d 8c3a 5512 333d 6ce3 c63d
00000080: 3602 53bd 42d3 03bd 04b8 17bc 624b d03c
00000090: 2577 ca3c 607a 98bd b445 843c b29b 7f3d
000000a0: a193 813d 5c93 093d d0e0 df3d 5b63 a23d
000000b0: 5cc0 a53d b031 53bd b763 0b3e 6ad4 343d
000000c0: b9fe 993d 259f 37bd 4816 313c 95f3 b2bd
000000d0: 8020 673d 3331 0dbd 1e9c e43d 45d5 063e
000000e0: 7e78 ea3d 00a3 a2bd b309 ea3d 048a f73d
000000f0: 3bcd 933c 0b87 e53d b16a 42bd 9436 ed3d
00000100: a29e 1a3e 18d7 d3bd 52df 2b3e e66a 38bd
00000110: 87cc 6bbd cb9f fa3d 9d91 d9bd efbe 843d
00000120: f97b 11bd 46d7 b53d 3729 1abd 6f2e 1db7
00000130: c145 023e 74d1 f53d cfbc bfbb e922 a3bd
00000140: bac5 073e badc 5e3c 95ea 633d 5b29 833d
00000150: 1401 f43d f706 0c3e 680d 98bd 5986 20bd
00000160: 5923 82bb 13b2 6f3d 6e79 dd3b f1d0 5ebd
00000170: 0dd5 12bd 2011 97bc e73e a8bd a11f 93bb
00000180: 7196 46bc 0915 72bd ba80 aebd afee 08be
00000190: ba07 cc3b 948c ca3b 48a5 d93d 5446 033e
000001a0: fb40 d53d 9a11 173e dae6 88bb 34b4 87bd
000001b0: edbc 113d e194 90bc f4da b5bd 75e3 e53d
000001c0: 8a93 d13d adff bfbd 5f1b 4abd 3630 efbd
000001d0: ec16 e03c 3737 0cbd b72e 9a3d b7bf 593d
000001e0: 96bd c6bd 54d0 133d 7df8 94bd 1995 d03d
000001f0: 963a d23d 20fd bc3d 5a61 a7bd b326 23bd
00000200: fd83 4bbd 5301 d3bd 6ac6 80bd bfb3 92bd
00000210: 1a01 c6bd 8a5a 74bc acea bc3d 3654 37bd
00000220: d632 60bd 4fdd 71bc be9e cabd 9d2b b93d
00000230: b815 bbbd bad0 963d 65df b13b 41f7 383c
00000240: 9d8c 4c3d 0d0e 7bbd b969 c23d 432d 003e
00000250: d85a bf3d 47f4 363b 6fcb 6ebc 1bf9 9ebd
00000260: 5d72 4f3d ae12 203b 444d d03d b882 91bd
00000270: 0539 abbd dc9f 3abd 2623 c9bd 9bc7 3ebd
00000280: 2d24 723d 78ec e93d 63dd bd3d 87d9 aebd
00000290: dda1 83bc cbe5 bd3d b2d6 b9bd 9461 9c3d
000002a0: 5663 923d f33f 9bbd f4a6 8fbd bbcc b53d
000002b0: 5ae4 bf3d fe3d 65bd aa9b a93c 0090 b5bd
000002c0: fd1e 0e3d 395e dfbd 3e8a a63d 651b 013d
000002d0: ec8a 9f3b 468b 41bd a036 663d 4aec fe3c
000002e0: 06fc c03d 73a5 7ebd 7407 b03d 5017 823c
000002f0: c50e 883d 8af8 a6bd c485 1cbd 83e8 d33d
00000300: 80bb 383e ea98 133e 17d9 ddbc 22f6 aa3d
00000310: 7ebc e23d eac7 b53d 066f 1ebd 072c 9bbd
00000320: 438d 16bc d347 e73d a97d 443c 0d8c 3c3e
00000330: 9ef3 613d 9a01 01bd ea5a 013e 818a 82bd
00000340: 7d09 6f3d ab60 87bd 1644 ac3d b6da fb3d
00000350: f31d 0c3e 3d96 2e3e fd53 123e b3df 213e
00000360: fee8 073e 6300 233b f63c ad3d ea64 463c
00000370: 4145 46bb f64f 113e 6420 05bd 497c f43b
00000380: 94b9 333d 4441 3b3d 8847 df3d 83e4 053d
00000390: d0dc 933b 2407 d53c cb74 78bc 8516 dcbc
000003a0: 1f57 c83d 6e79 1ebd 7e96 d13d 0f57 19bc
000003b0: 8941 183d be16 6b3d 0e5d 873d f729 4f3c
000003c0: 3ad4 873d 6e35 4a3d db10 9e3d 0cb6 8b3d
000003d0: c360 1f3d f0ea 0b3e c0b8 433d c816 fa3a
000003e0: 6ee8 123e 436c a5bd 2aa9 dc3b 89c3 8c3b
000003f0: 2ffd 753d 8fb3 f63c be99 bc3d 7701 6ebd

lstm.weight_ih_l1 f4 [256, 64]
-0.08495135 0.084051676 -0.15235546 -0.10993015 0.041297823 0.108867444 -0.066453025 -0.100500666
-0.07272203 -0.08231966 0.040614307 0.06920501 0.020858075 -0.117931426 0.000120645 -0.07810454
-0.028981537 0.055482585 0.15109658 0.0034184144 -0.08735302 0.030127507 0.09920841 0.028754868
-0.066474706 0.14080213 0.07235897 -0.068199515 0.053013362 -0.019617947 -0.06727883 -0.07470243
0.13841185 0.15731025 0.0013237635 -0.012686771 -0.000255419 0.061359342 -0.13782425 0.098765045
-0.08731419 0.04773373 -0.12889485 0.1499411 0.095101014 0.07989181 -0.05106682 0.054126944
0.06593288 0.10700081 -0.079192966 0.0751619 -0.027818779 -0.1063437 -0.037813913 0.0033453582
0.021126313 -0.010193044 0.06695319 0.15455702 0.13962688 -0.10048685 -0.11268082 0.07904582
-0.08927667 -0.028169014 -0.14637953 -0.07354729 -0.12202016 -0.09621113 0.09144652 -0.12575805
0.04825268 -0.11973663 -0.14888592 -0.008727068 0.08219175 0.01804377 0.026290704 -0.06371724
-0.07969074 -0.068819635 0.14082454 -0.0685449 -0.018330125 0.018851178 0.14277866 -0.0247485
-0.041059617 0.055148423 0.025911078 -0.05095023 -0.089381635 0.02875495 -0.003615911 -0.00020902445
0.04738934 0.072441496 0.057944912 0.0010824004 -0.08983202 -0.047338914 0.10811237 0.11065492
-0.06180064 0.019334229 -0.10372521 -0.023580335 0.13443072 0.06695808 0.031353094 0.10573961
-0.06906943 0.011688636 -0.04234376 -0.06692493 -0.053196445 0.10656054 -0.034482006 0.0753123
-0.06924711 0.027830927 0.022798695 0.082276285 -0.13943337 0.08671121 -0.09674461 -0.045660373
-0.066915825 0.056919225 -0.13838418 -0.048013512 -0.022155462 -0.079890564 0.04139556 -0.17017108
0.052196812 -0.060288437 -0.01721936 0.16170062 -0.06602962 -0.014374313 0.09032867 0.0876817
0.010422058 -0.0903731 0.04387898 0.08299117 -0.05485935 0.060324915 0.15220843 0.03277135
-0.041983142 -0.11239352 0.0049199336 0.09712306 -0.15043175 -0.069588676 0.030701872 -0.17897134
0.083709165 -0.063511826 0.15459543 0.113371454 0.08395107 -0.01664736 -0.060177125 -0.07850992
0.06570518 0.02921112 -0.13398762 0.07390564 0.08236245 0.07621682 -0.086435646 -0.013528788
-0.058564704 0.14837818 -0.09255237 -0.0604018 0.11546253 0.06296201 0.1032483 -0.11546109
0.05851601 -0.028461877 0.01932181 0.13304673 0.054763217 0.08642208 -0.039567813 0.040216893
0.13386166 0.034146134 0.08358405 0.08062778 0.05267524 -0.047033887 -0.08172391 -0.012712793
-0.07624251 -0.003867993 0.05443455 -0.028837007 0.02610547 0.05247347 0.07160759 0.10502361
0.1027707 -0.08005847 0.02482565 -0.015063372 0.10126262 -0.0068540615 0.0060982704 -0.06555774
-0.10144867 0.063540846 0.023624618 0.08815645 0.050837856 0.009085879 -0.060482126 -0.09096088
0.1412984 -0.026507657 0.02449243 -0.054979905 0.05420624 -0.087149665 0.010084081 0.12010399
-0.10651957 -0.019187806 -0.00035170213 -0.04568141 0.053339142 -0.0681876 -0.0380198 -0.11737687
0.02024195 -0.004795928 0.0628437 0.08775724 0.095860474 -0.007745149 0.13196951 -0.058652237
-0.08466692 0.019951116 -0.07341221 -0.017807802 0.08892856 0.107579246 0.0008446049 0.006549231
00000000: f9fa adbd 4923 ac3d 1203 1cbe 0f23 e1bd
00000010: e827 293d e5f5 de3d 8618 88bd 4bd3 cdbd
00000020: 4aef 94bd 3697 a8bd 305b 263d 5bbb 8d3d
00000030: 8ede aa3c 0886 f1bd cb02 fd38 46f5 9fbd
00000040: b06a edbc b541 633d 10b9 1a3e 7a07 603b
00000050: 24e6 b2bd f6cd f63c c72d cb3d 548f eb3c
00000060: e423 88bd 6f2e 103e f130 943d 30ac 8bbd
00000070: 8a24 593d d1b5 a0bc 7cc9 89bd 96fd 98bd
00000080: d6bb 0d3e f015 213e 2282 ad3a 2ddc 4fbc
00000090: c2e9 85b9 ef53 7b3d cd21 0dbe 5445 ca3d
000000a0: c8d1 b2bd 7284 433d 03fd 03be 298a 193e
000000b0: 52c4 c23d 519e a33d 712b 51bd 37b4 5d3d
000000c0: d107 873d 3e23 db3d ec2f a2bd 7bee 993d
000000d0: 35e4 e3bc baca d9bd c3e2 1abd cc3d 5b3b
000000e0: 1711 ad3c ba00 27bc c11e 893d 3244 1e3e
000000f0: 59fa 0e3e 0dcc cdbd 34c5 e6bd c6e2 a13d
00000100: b0d6 b6bd b4c2 e6bc 84e4 15be f69f 96bd
00000110: b5e5 f9bd 570a c5bd 5048 bb3d b8c6 00be
00000120: 9aa4 453d 7a38 f5bd 8d75 18be fafb 0ebc
00000130: 2654 a83d 87d0 933c 9a5f d73c 2f7e 82bd
00000140: e634 a3bd 4ff1 8cbd 4f34 103e 4561 8cbd
00000150: 0f29 96bc c96d 9a3c 9234 123e 5ebd cabc
00000160: 212e 28bd 50e3 613d 7843 d43c 30b1 50bd
00000170: b80d b7bd 808f eb3c ebf8 6cbb 932d 5bb9
00000180: 531b 423d 355c 943d a557 6d3d 55df 8d3a
00000190: daf9 b7bd 73e6 41bd 056a dd3d 0c9f e23d
000001a0: ab22 7dbd d162 9e3c e26d d4bd 8c2b c1bc
000001b0: 35a8 093e 5121 893d 1a6c 003d 028e d83d
000001c0: 4674 8dbd b181 3f3c a770 2dbd f00f 89bd
000001d0: 84e4 59bd 6a3c da3d 013d 0dbd 563d 9a3d
000001e0: 6ed1 8dbd affd e33c 54c4 ba3c 7880 a83d
000001f0: 9fc7 0ebe a695 b13d 0a22 c6bd 5f06 3bbd
00000200: 2a0b 89bd 2224 693d 95b4 0dbe d1a9 44bd
00000210: 5f7f b5bc aa9d a3bd 648e 293d 5441 2ebe
00000220: 53cc 553d 02f1 76bd 9e0f 8dbc d994 253e
00000230: 8a3a 87bd 3d82 6bbc 3dfe b83d 7792 b33d
00000240: 48c1 2a3c 8815 b9bd 72ba 333d 46f7 a93d
00000250: 33b4 60bd 4217 773d 87dc 1b3e 403b 063d
00000260: 84f6 2bbd 932e e6bd 6537 a13b 74e8 c63d
00000270: c80a 1abe 8284 8ebd 7e82 fb3c 4344 37be
00000280: b66f ab3d 7d12 82bd 444e 1e3e 4b2f e83d
00000290: 8aee ab3d 0b60 88bc 4a7c 76bd cfc9 a0bd
000002a0: 7090 863d 294c ef3c 0d34 09be d75b 973d
000002b0: a5ad a83d 9017 9c3d 2c05 b1bd daa7 5dbc
000002c0: 8be1 6fbd 73f0 173e 198c bdbd e167 77bd
000002d0: 9e77 ec3d 3af2 803d d873 d33d dd76 ecbd
000002e0: 7cae 6f3d e228 e9bc c648 9e3c 673d 083e
000002f0: 654f 603d 0ffe b03d dc11 22bd 78ba 243d
00000300: 0813 093e d1dc 0b3d 1d2e ab3d 2d20 a53d
00000310: fec1 573d 9ba6 40bd de5e a7bd 5249 50bc
00000320: 0825 9cbd 277e 7dbb c3f6 5e3d 963b ecbc
00000330: 23db d53c 6cee 563d 00a7 923d 9e16 d73d
00000340: 7279 d23d b2f5 a3bd 295f cb3c 5dcc 76bc
00000350: c762 cf3d 0998 e0bb 00d4 c73b 2343 86bd
00000360: 52c4 cfbd b421 823d 6a88 c13c 5e8b b43d
00000370: 5b3b 503d f0dc 143c 1bbc 77bd b349 babd
00000380: 87b0 103e 9626 d9bc 59a4 c83c 9c32 61bd
00000390: 5d07 5e3d 867b b2bd b437 253c 15f9 f53d
000003a0: ef26 dabd bf2f 9dbc a964 b8b9 6e1c 3bbd
000003b0: 257a 5a3d f1a5 8bbd a6ba 1bbd 4963 f0bd
000003c0: 72d2 a53c 2927 9dbb 33b4 803d 11ba b33d
000003d0: 7f52 c43d 05cb fdbb 0423 073e 543d 70bd
000003e0: da65 adbd 8670 a33c 2459 96bd abe1 91bc
000003f0: 2d20 b63d 8252 dc3d 7a68 5d3a ee9a d63b

lstm.weight_hh_l1 f4 [256, 64]
0.071177915 -0.06529602 -0.024267577 0.0030163114 0.14690198 -0.040196404 0.035034444 0.017509315
0.01936945 0.14789194 0.14250645 -0.10598674 -0.17864183 -0.05516853 0.0590082 0.14914702
0.019043917 0.0053051095 -0.05530043 -0.10882093 -0.0014926987 -0.08637288 -0.02705661 -0.020801542
-0.02823135 0.0325954 0.010928949 0.16702573 -0.028475972 0.103500135 -0.06539642 0.0051682475
0.064632125 -0.085860044 0.07416338 -0.034594215 0.087669335 -0.036612317 0.13763109 0.13622813
-0.038328577 0.018954283 0.04789054 -0.062063977 -0.030738823 0.05117503 -0.05025989 -0.036162708
-0.1491563 -0.049446657 -0.10370797 0.069478326 -0.07309497 0.08752643 -0.13962482 -0.0531273
-0.075734414 -0.043672442 0.06421635 -0.092988096 -0.072438195 0.14220518 -0.10072088 0.0336543
0.039718423 -0.007130404 0.021031 -0.0025412524 -0.017946579 -0.028101284 -0.09579447 0.055704426
-0.09340276 0.09322012 -0.08520284 -0.014914262 -0.14540227 0.02495833 -0.013609672 -0.049287736
-0.09191727 0.094835244 -0.061432052 0.035017576 0.08450862 -0.028220737 -0.04069507 -0.057832044
-0.0059853666 0.12851942 -0.0980398 0.09759149 0.0025824865 -0.078206725 -0.010945571 -0.0014549143
0.004451136 -0.035274755 -0.03662494 0.023636678 -0.020680303 0.04909161 -0.09598197 0.010038834
0.004729462 0.021579888 0.044729307 0.07774422 -0.050703816 -0.09639751 0.016435402 0.013330013
-0.07821632 -0.009360101 0.13122213 0.036504485 0.11833471 0.032949597 -0.030183557 -0.105494335
0.0006627689 -0.05410491 -0.10609058 0.035147045 0.012814714 0.108365454 -0.07086402 0.043661173
-0.11893172 -0.049063645 -0.013391711 0.09434097 0.05697556 0.13573739 0.09914621 0.046950314
0.06062876 -0.03410185 -0.08902126 -0.10380871 -0.093721464 0.10944424 -0.06302935 0.08209713
-0.039325155 0.12261081 -0.1308735 -0.080421075 -0.003016844 -0.116750404 -0.119470045 0.049328372
-0.12832409 -0.035495456 -0.06592412 -0.08896386 0.06300755 0.019070728 -0.14125878 0.08516043
0.04785108 0.034694854 0.0044118995 -0.08630906 0.09544745 -0.1370579 0.100632936 -0.008177156
0.0059468765 0.10580439 -0.02575495 -0.12669553 -0.0016577215 -0.122418724 0.05470863 0.003705385
-0.06300934 0.097102284 -0.07860961 -0.081447445 0.1314096 0.094192766 0.090775274 0.054683045
-0.09525637 0.06763186 0.060209613 -0.043157514 0.121767804 -0.08826278 -0.037926015 0.034370355
0.0772893 0.04043589 0.015647916 0.07530221 -0.056724492 0.14706121 0.101733215 -0.003632073
-0.031365495 0.004601794 0.059465796 -0.019111652 0.06674468 0.074456826 -0.014473769 0.0015977786
-0.026320182 -0.06808259 -0.1168776 -0.08625857 -0.073871136 0.027349692 -0.059999175 -0.12519968
-0.156422 0.006547625 0.002421383 -0.056119367 -0.062111378 0.057510752 -0.15499708 -0.009802487
0.102898695 0.04901745 0.044761095 -0.07853816 -0.021018427 0.0615592 -0.033047374 0.08419648
0.011359609 0.04711933 0.10425087 -0.093154185 -0.028660564 -0.07305414 0.06922693 0.13060568
0.08444697 -0.022899097 -0.107697144 0.0644519 0.07444768 -0.13299379 -0.06172558 -0.04088879
0.06684241 -0.057985365 -0.021435903 -0.08375034 0.058697943 0.15596436 -0.08847937 0.033254664
00000000: bac5 913d ebb9 85bd cccc c6bc 4fad 453b
00000010: 796d 163e fca4 24bd 4780 0f3d b26f 8f3c
00000020: aeac 9e3c fc70 173e 36ed 113e 930f d9bd
00000030: e2ed 36be 66f8 61bd 95b2 713d ffb9 183e
00000040: fd01 9c3c 7cd6 ad3b b482 62bd 82dd debd
00000050: a8a6 c3ba 44e4 b0bd d3a5 ddbc ff67 aabc
00000060: 6f45 e7bc c182 053d 560f 333c cb08 2b3e
00000070: 7146 e9bc e1f7 d33d 8fee 85bd 675a a93b
00000080: d95d 843d 64d7 afbd f8e2 973d aab2 0dbd
00000090: fb8b b33d ccf6 15bd 2aef 0c3e 637f 0b3e
000000a0: 6dfe 1cbd 0346 9b3c df28 443d cc36 7ebd
000000b0: fccf fbbc e99c 513d 50dd 4dbd 591f 14bd
000000c0: 6ebc 18be 9488 4abd d864 d4bd a74a 8e3d
000000d0: d1b2 95bd 0f41 b33d cff9 0ebe 039c 59bd
000000e0: a51a 9bbd e0e1 32bd dd83 833d 8b70 bebd
000000f0: 7a5a 94bd 3c9e 113e c046 cebd 17d9 093d
00000100: c9af 223d 2aa6 e9bb 3449 ac3c 248b 26bb
00000110: b404 93bc aa34 e6bc e42f c4bd 532a 643d
00000120: f249 bfbd 31ea be3d d47e aebd f35a 74bc
00000130: 55e4 14be 6975 cc3c 1afb 5ebc f0e1 49bd
00000140: 1f3f bcbd fb38 c23d 2da0 7bbd 976e 0f3d
00000150: db12 ad3d 2d2f e7bc e0af 26bd 4be1 6cbd
00000160: e520 c4bb 989a 033e 17c9 c8bd 0cde c73d
00000170: ef3e 293b d92a a0bd 0d55 33bc d3b2 beba
00000180: d6da 913b 437c 10bd 0804 16bd b5a1 c13c
00000190: bd69 a9bc 4914 493d 3292 c4bd ec79 243c
000001a0: 9af9 9a3b 4ec8 b03c 1436 373d 5d38 9f3d
000001b0: ceae 4fbd 0f6c c5bd 89a3 863c 2066 5a3c
000001c0: e12f a0bd 1c5b 19bc 185f 063e ba85 153d
000001d0: 7859 f23d 28f6 063d 8243 f7bc 6a0d d8bd
000001e0: abbd 2d3a 1c9d 5dbd 0546 d9bd 59f6 0f3d
000001f0: cef4 513c b5ee dd3d 2821 91bd 0fd6 323d
00000200: 7992 f3bd f6f6 48bd e868 5bbc d735 c13d
00000210: 345f 693d befe 0a3e 2b0d cb3d f94e 403d
00000220: dd55 783d 62ae 0bbd c750 b6bd a999 d4bd
00000230: 0af1 bfbd 4d24 e03d 8815 81bd 8a22 a83d
00000240: 6a13 21bd 601b fb3d b403 06be ceb3 a4bd
00000250: 3eb6 45bb d61a efbd b6ac f4bd 8c0c 4a3d
00000260: 6467 03be af63 11bd 3a03 87bd af32 b6bd
00000270: 1a0a 813d 373a 9c3c 24a6 10be 9768 ae3d
00000280: 7eff 433d 311c 0e3d b291 903b cec2 b0bd
00000290: f479 c33d e858 0cbe a418 ce3d 7af9 05bc
000002a0: 04de c23b f9af d83d 0bfc d2bc 79bc 01be
000002b0: e747 d9ba abb6 fabd 2816 603d 0bd6 723b
000002c0: 0a0b 81bd 90dd c63d 13fe a0bd ebcd a6bd
000002d0: 3d90 063e 23e8 c03d 63e8 b93d 54fb 5f3d
000002e0: c615 c3bd 9382 8a3d 5b9e 763d efc5 30bd
000002f0: 6661 f93d 1ec3 b4bd 4f58 1bbd eec7 0c3d
00000300: da49 9e3d 1ba0 253d 0f30 803c 0c38 9a3d
00000310: f157 68bd 3797 163e 8159 d03d 1308 6ebb
00000320: 1b79 00bd a5ca 963b 6892 733d 0a90 9cbc
00000330: 6fb1 883d d27c 983d 6323 6dbc 8e6c d13a
00000340: 6c9d d7bc e36e 8bbd 865d efbd 55a8 b0bd
00000350: c049 97bd 760c e03c b2c1 75bd 5834 00be
00000360: 172d 20be 768d d63b 11b0 1e3b 6cdd 65bd
00000370: 8068 7ebd 6590 6b3d 8eb7 1ebe 9c9a 20bc
00000380: 8dbc d23d 86c6 483d 6957 373d 9dd8 a0bd
00000390: d62e acbc 8025 7c3d af5c 07bd 346f ac3d
000003a0: a71d 3a3c 3300 413d 7b81 d53d 9fc7 bebd
000003b0: 8fc9 eabc 699d 95bd d9c6 8d3d 7fbd 053e
000003c0: 88f2 ac3d e396 bbbc 5290 dcbd 5cff 833d
000003d0: 0678 983d 862f 08be f6d3 7cbd 017b 27bd
000003e0: ace4 883d 1082 6dbd 599a afbc 4c85 abbd
000003f0: 416d 703d 1fb5 1f3e ac34 b5bd 0b36 083d

lstm.bias_ih_l1 f4 [256]
0.010890338 -0.030075563 -0.06636985 0.056327097 -0.08768818 0.06235276 0.08553218 0.047725227
0.0036474196 0.08096369 -0.019904984 0.030803978 0.06535652 0.052592225 0.08418326 0.110649824
0.020666951 0.10493319 -0.10900086 0.06979786 -0.031791978 0.04415753 -0.031225732 0.13875686
0.10379602 0.07723317 0.08348235 0.086074285 0.049462188 0.0029241403 0.113601305 0.07622058
-0.012785427 0.0600678 -0.048630007 -0.035229664 0.10112624 0.044196878 0.1676886 0.04716963
0.008451624 0.13753252 0.099533 0.11766554 0.13126016 -0.041256193 -0.10785503 0.08180167
-0.087251626 -0.032317817 0.0845237 -0.0072300774 0.06933131 -0.047672432 0.03941704 0.006647293
0.0712346 0.029665954 0.11944431 0.06578013 -0.020770062 -0.014173649 -0.04974992 0.0152442
0.056284536 -0.04476782 0.0060482495 0.030427454 -0.07409407 -0.06628502 0.05771964 0.09310026
0.08021591 0.088028595 -0.011210301 -0.07422104 -0.08550792 0.039363615 0.06865588 -0.050683606
0.05863529 -0.06609161 0.044146556 -0.024904912 0.005648349 0.050734486 -0.11380529 0.018510502
0.08234401 0.069484085 -0.10655155 0.068625994 -0.05468024 -0.08439808 -0.013673567 -0.0039587454
0.079544134 -0.073538765 0.08530264 -0.110691175 0.05846016 -0.08638334 -0.06117272 0.1021387
0.043567117 0.09515091 -0.106561586 0.04511781 -0.0029281592 -0.03881078 -0.029923132 -0.060061056
0.10024063 -0.06374261 0.016390728 0.047531523 -0.07862909 0.058533285 0.109160885 0.05703142
-0.011524974 -0.046626016 -0.08451157 0.06470341 -0.07063493 -0.053006243 -0.066868894 -0.06918327
0.027739728 0.035295464 -0.12141836 -0.024564477 -0.058658063 0.055299785 -0.01990174 -0.073250614
-0.07803724 -0.013673083 0.009802285 -0.0750216 -0.06636272 0.047920395 0.041663315 0.09075376
0.08362619 0.075035095 -0.10813375 -0.05527591 -0.07773364 -0.120702155 -0.06239955 0.027209006
0.031341556 0.0887619 0.07939007 0.0928972 0.045593783 0.07060162 -0.029079808 0.009351462
-0.014894987 0.050179206 0.039180547 -0.087654084 0.09832991 -0.113123395 7.6683515e-05 0.040360138
0.024549928 0.06394958 0.08605577 -0.044158205 0.027723294 -0.10017887 0.016101832 0.010089075
-0.004374189 -0.07757838 -0.10708354 0.053022496 0.04475863 -0.07077669 -0.1185925 -0.020422563
-0.07103783 -0.094461516 -0.120954394 0.06512575 0.060595114 0.04475009 -0.08886167 0.019422276
-0.07263066 -0.08400583 -0.040847767 0.084800296 0.056350026 0.00080606784 -0.00623657 0.08009605
0.04694346 0.0056009553 0.081344046 -0.055674054 0.021133682 -0.071166955 -0.06897778 0.006643087
-0.040142715 0.09071719 0.07631974 -0.014148015 0.12683344 0.03614018 0.077888854 -0.009367466
-0.010310929 0.10257791 0.0023321644 0.12226642 -0.025105359 0.13419509 -0.035395585 0.13972068
-0.074711695 0.022486659 0.09334103 -0.06208428 -0.10018435 -0.004939148 0.16010651 -0.098742396
0.11077922 0.12711774 0.040142607 0.10959164 0.044378493 0.11171058 -0.09423206 -0.03168277
-0.05144549 -0.036885507 -0.00093669095 -0.09145201 -0.051498204 -0.05934945 0.11822296 0.07093205
0.04171993 0.12372994 -0.10074663 0.1192415 0.04257267 0.029816328 0.031454675 -0.0047176005
00000000: 636d 323c 0761 f6bc eaec 87bd 3eb7 663d
00000010: dc95 b3bd 9c65 7f3d 7f2b af3d 877b 433d
00000020: 8c09 6f3b 4bd0 a53d c70f a3bc a058 fc3c
00000030: a4d9 853d f26a 573d 4668 ac3d 609c e23d
00000040: bd4d a93c 36e7 d63d d83b dfbd 2ef2 8e3d
00000050: 4e38 02bd 87de 343d 1bcd ffbc 4716 0e3e
00000060: 0293 d43d 6d2c 9e3d cbf8 aa3d b747 b03d
00000070: dd98 4a3d efa2 3f3b cda7 e83d 8919 9c3d
00000080: f879 51bc a709 763d 4230 47bd fb4c 10bd
00000090: 461b cf3d c907 353d 8fb6 2b3e f134 413d
000000a0: ae78 0a3c 53d5 0c3e f5d7 cb3d a1fa f03d
000000b0: 1069 063e 41fc 28bd 19e3 dcbd a287 a73d
000000c0: fbb0 b2bd b05f 04bd c31a ad3d 49ea ecbb
000000d0: 93fd 8d3d 2b44 43bd c373 213d 89d1 d93b
000000e0: 72e3 913d 0406 f33c 389f f43d bcb7 863d
000000f0: fa25 aabc 9838 68bc 92c6 4bbd cfc2 793c
00000100: 9d8a 663d 765e 37bd 6530 c63b ff42 f93c
00000110: a2be 97bd 71c0 87bd 6e6b 6c3d 59ab be3d
00000120: 3d48 a43d 5648 b43d 69ab 37bc 3301 98bd
00000130: c71e afbd be3b 213d 749b 8c3d 9d99 4fbd
00000140: 8f2b 703d 0a5b 87bd 05d3 343d 6305 ccbc
00000150: c915 b93b f7ce 4f3d bf12 e9bd 56a3 973c
00000160: faa3 a83d ac4d 8e3d b337 dabd c98b 8c3d
00000170: 63f8 5fbd e7d8 acbd 1907 60bc 5db8 81bb
00000180: 09e8 a23d 7e9b 96bd 27b3 ae3d 0eb2 e2bd
00000190: ec73 6f3d c0e9 b0bd 3f90 7abd 182e d13d
000001a0: 6f73 323d 7bde c23d f63c dabd 74cd 383d
000001b0: 5ce6 3fbb 0df8 1ebd 5b21 f5bc 9502 76bd
000001c0: f64a cd3d 7c8b 82bd d945 863c 6ab0 423d
000001d0: 4a08 a1bd 99c0 6f3d be8f df3d c799 693d
000001e0: 3fd3 3cbc ecfa 3ebd 6714 adbd 3983 843d
000001f0: 0ca9 90bd 131d 59bd 8ff2 88bd f5af 8dbd
00000200: 6d3e e33c fa91 103d 30aa f8bd 713b c9bc
00000210: 7043 70bd 0782 623d f908 a3bc 6b04 96bd
00000220: fdd1 9fbd 1105 60bc c399 203c eda4 99bd
00000230: 2ee9 87bd 2d48 443d 27a7 2a3d 1bdd b93d
00000240: 3544 ab3d 00ac 993d 3a75 ddbd fe68 62bd
00000250: d132 9fbd b132 f7bd ac96 7fbd 6ce5 de3c
00000260: 0160 003d cdc8 b53d 4397 a23d e340 be3d
00000270: 8cc0 3a3d 9597 903d c738 eebc e036 193c
00000280: 1b0a 74bc b688 4d3d c87b 203d fc83 b3bd
00000290: 3161 c93d 3dad e7bd 26d1 a038 ac50 253d
000002a0: ee1c c93c fff7 823d 023e b03d 3cdf 34bd
000002b0: f61b e33c 942a cdbd fde7 833c a64c 253c
000002c0: 5b55 8fbb 6ae1 9ebd 9d4e dbbd 1e2e 593d
000002d0: d354 373d 5ff3 90bd a0e0 f2bd 384d a7bc
000002e0: 487c 91bd 0a75 c1bd f0b6 f7bd a660 853d
000002f0: 9532 783d df4b 373d 1bfd b5bd 771b 9f3c
00000300: 62bf 94bd 400b acbd fd4f 27bd c7ab ad3d
00000310: 49cf 663d 4c4e 533a 245c ccbb 6609 a43d
00000320: c947 403d 3888 b73b b597 a63d 7a0a 64bd
00000330: 8b20 ad3c fbbf 91bd 3944 8dbd 41ae d93b
00000340: b06c 24bd efc9 b93d 864d 9c3d 13cd 67bc
00000350: a0e0 013e ba07 143d 3184 9f3d 007a 19bc
00000360: 2cef 28bc 5e14 d23d 3ad7 183b d166 fa3d
00000370: c1a9 cdbc 706a 093e f6fa 10bd f012 0f3e
00000380: 7202 99bd f135 b83c 9529 bf3d 164c 7ebd
00000390: 742d cdbd 94d8 a1bb f6f2 233e 7439 cabd
000003a0: 37e0 e23d 272b 023e 936c 243d 9571 e03d
000003b0: 39c6 353d 84c8 e43d bdfc c0bd cbc5 01bd
000003c0: 82b8 52bd 4215 17bd 448c 75ba 314b bbbd
000003d0: c8ef 52bd 6918 73bd e11e f23d d344 913d
000003e0: 84e2 2a3d 1f66 fd3d 4054 cebd e334 f43d
000003f0: ae60 2e3d 5f41 f43c 9ed6 003d 1a96 9abb

lstm.bias_hh_l1 f4 [256]
0.075870655 0.01046313 -0.10088386 0.01755764 0.102058604 0.124727204 0.1425153 0.13256834
-0.054237995 -0.09213529 -0.09326845 0.049621042 -0.005517988 -0.02558888 0.048820153 -0.046219014
0.041048583 0.0702521 -0.08828668 0.030303048 -0.044426944 -0.06777597 0.11812589 -0.0751317
-0.029943462 -0.013696483 0.033837166 -0.018860482 -0.03140274 0.13317448 -0.06980213 -0.027902173
-0.10323801 -0.06916633 0.042514432 -0.10726121 0.07065603 0.14742558 0.1345079 -0.02888087
0.09470943 0.05601693 0.10554624 0.030622413 0.048133735 0.102414355 -0.09957827 -0.06758669
0.04800518 -0.04047262 -0.028063532 0.11217801 0.05440767 -0.10579926 0.11734792 0.08104739
-0.058607537 0.11922644 0.09153341 -0.07068529 -0.0063591735 0.01028448 0.016698232 -0.023657117
0.09102151 -0.00095160515 -0.05323187 -0.0031237658 0.10040172 0.09321593 0.03589065 0.07666849
0.07189377 -0.05004051 0.0058114273 0.10429218 -0.0029993756 -0.114207014 -0.10135847 -0.05140238
-0.0245143 0.0017555307 0.085056394 0.04021652 -0.114888765 -0.03385091 0.10913203 0.0029555855
0.02493036 0.008368105 0.1103264 0.002016421 0.0028757118 0.010051974 -0.026929807 0.04669498
-0.04079064 -0.1112404 -0.07371972 -0.1011605 0.013606716 0.05800123 -0.047026504 0.03052477
-0.099263966 0.043834638 -0.08179541 0.01171611 0.012068002 0.0154090505 -0.013682908 0.051558442
-0.026652312 0.059438683 0.06468194 -0.05006408 -0.0754375 -0.010871257 -0.10899748 0.0016074773
-0.063404344 -0.05551809 0.104329415 0.020942984 0.031161547 0.099166125 0.008069736 0.0630672
0.019026076 -0.09994372 -0.027189462 -0.08788083 0.10523237 0.027811661 0.07983402 0.053242072
-0.03489448 0.104422376 -0.022002643 0.06116817 -0.08814642 0.08698947 -0.10052753 0.11375936
0.110823326 0.0256844 0.10894613 0.03495507 -0.04274832 -0.013027763 -0.065244734 -0.10479946
-0.044438686 0.058149572 -0.008238461 0.046047863 -0.015859956 -0.016147219 -0.116245955 0.010413393
0.0872016 -0.089557365 -0.08517544 0.07361986 -0.020290438 0.081910916 0.008435891 -0.06541548
0.11252592 0.119332045 -0.023711853 -0.089591615 0.008291827 0.04688449 0.07676745 0.046593312
-0.11582971 0.04632866 0.10693545 0.06787883 0.11374461 0.101284795 -0.084248684 -0.00095128326
0.044162173 0.074502006 -0.026820648 -0.03779722 0.109864645 -0.07160627 -0.09128112 -0.09095692
0.07362731 -0.02743338 0.046593506 -0.0817237 0.030023182 0.12070311 0.02603744 0.07271193
0.028576598 0.036107443 0.05627953 0.05934931 -0.036301527 0.031302154 -0.053313 -0.066224165
0.08304123 0.1428632 -0.044609055 0.16278426 -0.019458435 0.028125996 0.12181484 0.14111619
0.0019346096 -0.04850413 0.002364052 0.056209642 0.0661517 -0.053879224 -0.043710303 0.0020061205
0.024765484 -0.084251404 0.05015247 -0.0059764427 -0.11161554 0.104082085 -0.0117114745 0.04559518
-0.030244417 0.14629285 0.114386626 0.13050021 0.017930126 0.041229643 -0.015758097 -0.07852221
0.08853629 0.16396143 0.043380234 -0.09999607 0.03622458 0.061741367 0.09366401 -0.08857718
0.1250368 -0.08974873 0.038087003 0.0697271 0.01957796 -0.027301654 -0.03342955 -0.056728687
00000000: 1362 9b3d 8c6d 2b3c 329c cebd 0ad5 8f3c
00000010: 1a04 d13d fa70 ff3d 88ef 113e ffbf 073e
00000020: a928 5ebd 6db1 bcbd 8703 bfbd 6f3f 4b3d
00000030: 3dd0 b4bb c59f d1bc a4f7 473d 2650 3dbd
00000040: 8f22 283d 55e0 8f3d a6cf b4bd 193e f83c
00000050: 07f9 35bd 21ce 8abd fdeb f13d a6de 99bd
00000060: fe4b f5bc 3767 60bc d798 0a3d 4c81 9abc
00000070: 29a0 00bd e45e 083e 6bf4 8ebd 1993 e4bc
00000080: 736e d3bd 14a7 8dbd 9d23 2e3d c4ab dbbd
00000090: 1cb4 903d bbf6 163e 70bc 093e 9397 ecbc
000000a0: 05f7 c13d 0272 653d a128 d83d dbdb fa3c
000000b0: e127 453d 9ebe d13d b1ef cbbd e46a 8abd
000000c0: 14a1 443d 9ec6 25bd 7ee5 e5bc 96bd e53d
000000d0: 94da 5e3d 48ad d8bd 1b54 f03d 2dfc a53d
000000e0: 750e 70bd fe2c f43d de75 bb3d 73c3 90bd
000000f0: 9d60 d0bb 3c80 283c bbca 883c 92cc c1bc
00000100: 7c69 ba3d 2475 79ba a909 5abd 18b8 4cbb
00000110: 6b9f cd3d fee7 be3d 1302 133d 5f04 9d3d
00000120: 0a3d 933d 47f7 4cbd c96d be3b 2397 d53d
00000130: 2c91 44bb 5ee5 e9bd 0895 cfbd 4d8b 52bd
00000140: 37d2 c8bc d619 e63a 0c32 ae3d 14ba 243d
00000150: cd4a ebbd 40a7 0abd 9d80 df3d 7fb2 413b
00000160: c13a cc3c 601a 093c cff2 e13d ee25 043b
00000170: 7076 3c3b 09b1 243c e69b dcbc 3c43 3f3d
00000180: 1614 27bd 02d2 e3bd 5dfa 96bd 3c2d cfbd
00000190: b4ee 5e3c b392 6d3d dd9e 40bd 150f fa3c
000001a0: e84a cbbd f38b 333d 5a84 a7bd edf4 3f3c
000001b0: deb8 453c 3e76 7c3c 472e 60bc f22e 533d
000001c0: f355 dabc fa75 733d f777 843d fe0f 4dbd
000001d0: fa7e 9abd 5b1d 32bc 123a dfbd fdb1 d23a
000001e0: 23da 81bd f066 63bd a9aa d53d 9f90 ab3c
000001f0: 8046 ff3c 9c17 cb3d ed36 043c 6029 813d
00000200: 93dc 9b3c 4baf ccbd 6fbc debc ddfa b3bd
00000210: 1284 d73d 48d5 e33c 0580 a33d 5c14 5a3d
00000220: 84ed 0ebd 66db d53d e33e b4bc 7a8b 7a3d
00000230: 1c86 b4bd 8927 b23d 61e1 cdbd abfa e83d
00000240: 57f7 e23d 1768 d23c 261f df3d 0c2d 0f3d
00000250: dd18 2fbd 6672 55bc 089f 85bd 19a1 d6bd
00000260: 5705 36bd 3f2e 6e3d 9cfa 06bc af9c 3c3d
00000270: bdec 81bc 2c47 84bc 5c12 eebd f09c 2a3c
00000280: c196 b23d da69 b7bd 7670 aebd 02c6 963d
00000290: 2238 a6bc e9c0 a73d b136 0a3c 8df8 85bd
000002a0: fd73 e63d 5c64 f43d 5c3f c2bc cf7b b7bd
000002b0: 71da 073c f309 403d 4138 9d3d a1d8 3e3d
000002c0: 2138 edbd 1fc3 3d3d f900 db3d 0e04 8b3d
000002d0: eff2 e83d 676e cf3d 938a acbd 8a5f 79ba
000002e0: 65e3 343d 8294 983d fab6 dbbc 42d1 1abd
000002f0: b700 e13d 4fa6 92bd 99f1 babd 9f47 babd
00000300: eac9 963d f8bb e0bc d5d8 3e3d c15e a7bd
00000310: 2df3 f53c 3133 f73d 784c d53c fee9 943d
00000320: 7819 ea3c 66e5 133d 5d85 663d 4318 733d
00000330: e9b0 14bd b036 003d bb5e 5abd 89a0 87bd
00000340: 8511 aa3d bb4a 123e fcb7 36bd ebb0 263e
00000350: 4c67 9fbc 7d68 e63c 0f7a f93d c380 103e
00000360: ba92 fd3a 44ac 46bd 36ee 1a3b 153c 663d
00000370: 8b7a 873d 76b0 5cbd 9309 33bd 1e79 033b
00000380: fce0 ca3c 008c acbd ad6c 4d3d 09d6 c3bb
00000390: b096 e4bd fd28 d53d 7ce1 3fbc 03c2 3a3d
000003a0: 24c3 f7bc cbcd 153e 8943 ea3d d9a1 053e
000003b0: 33e2 923c 6ae0 283d 2017 81bc 41d0 a0bd
000003c0: 8452 b53d 81e5 273e 79af 313d bdca ccbd
000003d0: 3a60 143d 84e4 7c3d ebd2 bf3d f467 b5bd
000003e0: a609 003e 2fce b7bd 1e01 1c3d 15cd 8e3d
000003f0: f561 a03c b8a7 dfbc 6ced 08bd 575c 68bd
